…
9;&lt;|endoftext|&gt;&#39;&#125;, clean_up_tokenization_spaces=False, added_tokens_decoder=&#123;    50256: AddedToken(&quot;&lt;|endoftext|&gt;&quot;, rstrip=False, lstrip=False, single_word=False, normalized=True, special=True),&#125;)</code></pre><pre><code class="lang-python">tokenizer.pad_token</code></pre><pre><code>&#39;&lt;|endoftext|&gt;&#39;</code></pre><h2 id="检查-pretrained-模型"><a href="#检查-pretrained-模型" class="headerlink" title="检查 pretrained 模型"></a>检查 pretrained 模型</h2><pre><code class="lang-python">model</code></pre><pre><code>GPT2LMHeadModel(  (transformer): GPT2Model(    (wte): Embedding(50257, 768)    (wpe): Embedding(1024, 768)    (drop): Dropout(p=0.1, inplace=False)    (h): ModuleList(      (0-11): 12 x GPT2Block(        (ln_1): LayerNorm((768,), eps=1e-05, elementwise_affine=True)        (attn): GPT2Attention(          (c_attn): Conv1D(nf=2304, nx=768)          (c_proj): Conv1D(nf=768, nx=768)          (attn_dropout): Dropout(p=0.1, inplace=False)          (resid_dropout): Dropout(p=0.1, inplace=False)        )        (ln_2): LayerNorm((768,), eps=1e-05, elementwise_affine=True)        (mlp): GPT2MLP(          (c_fc): Conv1D(nf=3072, nx=768)          (c_proj): Conv1D(nf=768, nx=3072)          (act): NewGELUActivation()          (dropout): Dropout(p=0.1, inplace=False)        )      )    )    (ln_f): LayerNorm((768,), eps=1e-05, elementwise_affine=True)  )  (lm_head): Linear(in_features=768, out_features=50257, bias=False))</code></pre><pre><code class="lang-python"># 计算总参数量total_params = sum(p.numel() for p in model.parameters())print(f&quot;总参数量：&#123;total_params / 1e6:.1f&#125;M&quot;)# 计算可训练参数量（若部分层被冻结）trainable_params = sum(p.numel() for p in model.parameters() if p.requires_grad)print(f&quot;可训练参数量：&#123;trainable_params / 1e6:.1f&#125;M&quot;)</code></pre><pre
…
poUrl(&#39;https://huggingface.co/goldandrabbit/zxc_ft_gpt2_on_wikitext2&#39;, endpoint=&#39;https://huggingface.co&#39;, repo_type=&#39;model&#39;, repo_id=&#39;goldandrabbit/zxc_ft_gpt2_on_wikitext2&#39;), pr_revision=None, pr_num=None)</code></pre><p>测试本地 inference 流程, 先读取本地的模型</p><pre><code class="lang-python">local_model_path = model_output_dirtokenizer = AutoTokenizer.from_pretrained(local_model_path)model     = AutoModelForCausalLM.from_pretrained(local_model_path)</code></pre><pre><code class="lang-python">model</code></pre><pre><code>GPT2LMHeadModel(  (transformer): GPT2Model(    (wte): Embedding(50257, 768)    (wpe): Embedding(1024, 768)    (drop): Dropout(p=0.1, inplace=False)    (h): ModuleList(      (0-11): 12 x GPT2Block(        (ln_1): LayerNorm((768,), eps=1e-05, elementwise_affine=True)        (attn): GPT2Attention(          (c_attn): Conv1D(nf=2304, nx=768)          (c_proj): Conv1D(nf=768, nx=768)          (attn_dropout): Dropout(p=0.1, inplace=False)          (resid_dropout): Dropout(p=0.1, inplace=False)        )        (ln_2): LayerNorm((768,), eps=1e-05, elementwise_affine=True)        (mlp): GPT2MLP(          (c_fc): Conv1D(nf=3072, nx=768)          (c_proj): Conv1D(nf=768, nx=3072)          (act): NewGELUActivation()          (dropout): Dropout(p=0.1, inplace=False)        )      )    )    (ln_f): LayerNorm((768,), eps=1e-05, elementwise_affine=True)  )  (lm_head): Linear(in_features=768, out_features=50257, bias=False))</code></pre><pre><code class="lang-python">query_str = &quot;Can you tell me a story&quot;prompt = tokenizer(query_str, return_tensors=&#39;pt&#39;)</code></pre><pre><code class="lang-python">prompt</code></pre><pre><code>&#123;&#39;input_ids&#39;: tensor([[6090,  345, 1560,  502,  257, 1621]]), &#39;attention_mask&#39;: tensor([[1, 1, 1, 1, 1, 1]]
…
ert-base-cased&quot;, num_labels=5)device = torch.device(&quot;cuda&quot;) if torch.cuda.is_available() else torch.device(&quot;cpu&quot;)model.to(device)</code></pre><pre><code>Some weights of BertForSequenceClassification were not initialized from the model checkpoint at google-bert/bert-base-cased and are newly initialized: [&#39;classifier.bias&#39;, &#39;classifier.weight&#39;]You should probably TRAIN this model on a down-stream task to be able to use it for predictions and inference.BertForSequenceClassification(  (bert): BertModel(    (embeddings): BertEmbeddings(      (word_embeddings): Embedding(28996, 768, padding_idx=0)      (position_embeddings): Embedding(512, 768)      (token_type_embeddings): Embedding(2, 768)      (LayerNorm): LayerNorm((768,), eps=1e-12, elementwise_affine=True)      (dropout): Dropout(p=0.1, inplace=False)    )    (encoder): BertEncoder(      (layer): ModuleList(        (0-11): 12 x BertLayer(          (attention): BertAttention(            (self): BertSdpaSelfAttention(              (query): Linear(in_features=768, out_features=768, bias=True)              (key): Linear(in_features=768, out_features=768, bias=True)              (value): Linear(in_features=768, out_features=768, bias=True)              (dropout): Dropout(p=0.1, inplace=False)            )            (output): BertSelfOutput(              (dense): Linear(in_features=768, out_features=768, bias=True)              (LayerNorm): LayerNorm((768,), eps=1e-12, elementwise_affine=True)              (dropout): Dropout(p=0.1, inplace=False)            )          )          (intermediate): BertIntermediate(            (dense): Linear(in_features=768, out_features=3072, bias=True)            (intermediate_act_fn): GELUActivation()          )          (output): BertOutput(            (dense): Linear(in_features=3072, out_features=768, bias=True)            (LayerNorm): LayerNorm((768,), eps=1e-12, elementwise_affine=True)            (dropout): Dropout(p=0.1, inplace=False)          )        )      )    )    (pooler): BertPooler(      (dense): Linear(in_features=768, out_features=768, bias=True)      (activation): Tanh()    )  )  (dropout): Dropout(p=0.1, inplace=False)  (classifier): Linear(in_features=768, out_features=5, bias=True))</code></pre><pre><code class="lang-python">from transformers import get_schedulerfrom torch.optim import AdamW, SGDoptimizer = AdamW(model.parameters(), lr=5e-5)num_epochs = 3num_training_steps = num_epochs * len(traindataloader)lr_scheduler = get_scheduler(    name=&quot;linear&quot;,    optimizer=optimizer,    num_warmup_steps=0,    num_training_steps
…
